…
[2022-12-21 23:59:12,138][print_config][INFO] - use_norm False
[2022-12-21 23:59:12,138][print_config][INFO] - norm_type layernorm
[2022-12-21 23:59:12,138][print_config][INFO] - self.token_shift_type -1
[2022-12-21 23:59:12,141][print_config][INFO] - swish
[2022-12-21 23:59:12,141][print_config][INFO] - None
[2022-12-21 23:59:12,141][print_config][INFO] - act_fun swish
[2022-12-21 23:59:12,141][print_config][INFO] - dropout 0.1
[2022-12-21 23:59:12,142][print_config][INFO] - final None
LOCAL_RANK: 0 - CUDA_VISIBLE_DEVICES: [0]
SequenceModel(
  (drop): Identity()
  (layers): ModuleList(
    (0): SequenceResidualBlock(
      (layer): Gtu(
        (v_proj): Linear(in_features=32, out_features=64, bias=True)
        (u_proj): Linear(in_features=32, out_features=64, bias=True)
        (o): Linear(in_features=64, out_features=32, bias=True)
        (toep): Tno(
          (rpe): Rpe(
            (pos_proj): Linear(in_features=1, out_features=16, bias=True)
            (pos1): Sequential(
              (0): ReLU(inplace=True)
              (1): Linear(in_features=16, out_features=16, bias=True)
            )
            (pos2): Sequential(
              (0): ReLU(inplace=True)
              (1): Linear(in_features=16, out_features=16, bias=True)
            )
            (pos3): Sequential(
              (0): LayerNorm((16,), eps=1e-05, elementwise_affine=True)
              (1): ReLU(inplace=True)
              (2): Linear(in_features=16, out_features=64, bias=True)
            )
          )
        )
        (pre_norm): LayerNorm((32,), eps=1e-05, elementwise_affine=True)
      )
      (residual): Residual()
      (norm): Normalization(
        (norm): BatchNorm1d(32, eps=1e-05, momentum=0.1, affine=True, track_running_stats=True)
      )
      (drop): Dropout(p=0.1, inplace=False)
    )
    (1): SequenceResidualBlock(
      (layer): GLU(
        (l1): Linear(in_features=32, out_features=96, bias=True)
        (l2): Linear(in_features=32, out_features=96, bias=True)
        (l3): Linear(in_features=96, out_features=32, bias=True)
        (dropout): Dropout(p=0.1, inplace=False)
      )
      (residual): Residual()
      (norm): Normalization(
        (norm): BatchNorm1d(32, eps=1e-05, momentum=0.1, affine=True, track_running_stats=True)
      )
      (drop): Dropout(p=0.1, inplace=False)
    )
    (2): SequenceResidualBlock(
      (layer): Gtu(
        (v_proj): Linear(in_features=32, out_features=64, bias=True)
        (u_proj): Linear(in_features=32, out_features=64, bias=True)
        (o): Linear(in_features=64, out_features=32, bias=True)
        (toep): Tno(
          (rpe): Rpe(
            (pos_proj): Linear(in_features=1, out_features=16, bias=True)
            (pos1): Sequential(
              (0): ReLU(inplace=True)
              (1): Linear(in_features=16, out_features=16, bias=True)
            )
            (pos2): Sequential(
              (0): ReLU(inplace=True)
              (1): Linear(in_features=16, out_features=16, bias=True)
            )
            (pos3): Sequential(
              (0): LayerNorm((16,), eps=1e-05, elementwise_affine=True)
              (1): ReLU(inplace=True)
              (2): Linear(in_features=16, out_features=64, bias=True)
            )
          )
        )
        (pre_norm): LayerNorm((32,), eps=1e-05, elementwise_affine=True)
      )
      (residual): Residual()
      (norm): Normalization(
        (norm): BatchNorm1d(32, eps=1e-05, momentum=0.1, affine=True, track_running_stats=True)
      )
      (drop): Dropout(p=0.1, inplace=False)
    )
    (3): SequenceResidualBlock(
      (layer): GLU(
        (l1): Linear(in_features=32, out_features=96, bias=True)
        (l2): Linear(in_features=32, out_features=96, bias=True)
        (l3): Linear(in_features=96, out_features=32, bias=True)
        (dropout): Dropout(p=0.1, inplace=False)
      )
      (residual): Residual()
      (norm): Normalization(
        (norm): BatchNorm1d(32, eps=1e-05, momentum=0.1, affine=True, track_running_stats=True)
      )
      (drop): Dropout(p=0.1, inplace=False)
    )
  )
  (norm): Normalization(
    (norm): BatchNorm1d(32, eps=1e-05, momentum=0.1, affine=True, track_running_stats=True)
  )
)
[2022-12-21 23:59:14,952][__main__][INFO] - Optimizer group 0 | 64 tensors

  | Name    | Type            | Params
--------------------------------------------
0 | model   | SequenceModel   | 35.5 K
1 | encoder | Sequential      | 64    
2 | decoder | SequenceDecoder | 330   
--------------------------------------------
35.7 K    Trainable params
…
