…
[2022-12-21 17:41:28,106][print_config][INFO] - activation: none
[2022-12-21 17:41:28,107][print_config][INFO] - activation: none
swish
None
act_fun swish
dropout 0.1
final None
[2022-12-21 17:41:28,112][print_config][INFO] - activation: silu
[2022-12-21 17:41:28,115][print_config][INFO] - activation: none
[2022-12-21 17:41:28,116][print_config][INFO] - activation: none
LOCAL_RANK: 0 - CUDA_VISIBLE_DEVICES: [0]
swish
None
act_fun swish
dropout 0.1
final None
SequenceModel(
  (drop): Identity()
  (layers): ModuleList(
    (0): SequenceResidualBlock(
      (layer): Gtu2d(
        (dropout): Dropout(p=0.1, inplace=False)
        (v_proj): Linear(in_features=32, out_features=64, bias=True)
        (u_proj): Linear(in_features=32, out_features=64, bias=True)
        (o): Linear(in_features=64, out_features=32, bias=True)
        (toep1): Tno(
          (rpe): Rpe(
            (pos_proj): Linear(in_features=1, out_features=16, bias=True)
            (layers): ModuleList(
              (0): Sequential(
                (0): ReLU(inplace=True)
                (1): Linear(in_features=16, out_features=16, bias=True)
              )
              (1): Sequential(
                (0): ReLU(inplace=True)
                (1): Linear(in_features=16, out_features=16, bias=True)
              )
            )
            (out): Sequential(
              (0): LayerNorm((16,), eps=1e-05, elementwise_affine=True)
              (1): ReLU(inplace=True)
              (2): Linear(in_features=16, out_features=64, bias=True)
            )
          )
        )
        (toep2): Tno(
          (rpe): Rpe(
            (pos_proj): Linear(in_features=1, out_features=16, bias=True)
            (layers): ModuleList(
              (0): Sequential(
                (0): ReLU(inplace=True)
                (1): Linear(in_features=16, out_features=16, bias=True)
              )
              (1): Sequential(
                (0): ReLU(inplace=True)
                (1): Linear(in_features=16, out_features=16, bias=True)
              )
            )
            (out): Sequential(
              (0): LayerNorm((16,), eps=1e-05, elementwise_affine=True)
              (1): ReLU(inplace=True)
              (2): Linear(in_features=16, out_features=64, bias=True)
            )
          )
        )
      )
      (residual): Residual()
      (norm): Normalization(
        (norm): BatchNorm1d(32, eps=1e-05, momentum=0.1, affine=True, track_running_stats=True)
      )
      (drop): Dropout(p=0.1, inplace=False)
    )
    (1): SequenceResidualBlock(
      (layer): GLU(
        (l1): Linear(in_features=32, out_features=96, bias=True)
        (l2): Linear(in_features=32, out_features=96, bias=True)
        (l3): Linear(in_features=96, out_features=32, bias=True)
        (dropout): Dropout(p=0.1, inplace=False)
      )
      (residual): Residual()
      (norm): Normalization(
        (norm): BatchNorm1d(32, eps=1e-05, momentum=0.1, affine=True, track_running_stats=True)
      )
      (drop): Dropout(p=0.1, inplace=False)
    )
    (2): SequenceResidualBlock(
      (layer): Gtu2d(
        (dropout): Dropout(p=0.1, inplace=False)
        (v_proj): Linear(in_features=32, out_features=64, bias=True)
        (u_proj): Linear(in_features=32, out_features=64, bias=True)
        (o): Linear(in_features=64, out_features=32, bias=True)
        (toep1): Tno(
          (rpe): Rpe(
            (pos_proj): Linear(in_features=1, out_features=16, bias=True)
            (layers): ModuleList(
              (0): Sequential(
                (0): ReLU(inplace=True)
                (1): Linear(in_features=16, out_features=16, bias=True)
              )
              (1): Sequential(
                (0): ReLU(inplace=True)
                (1): Linear(in_features=16, out_features=16, bias=True)
              )
            )
            (out): Sequential(
              (0): LayerNorm((16,), eps=1e-05, elementwise_affine=True)
              (1): ReLU(inplace=True)
              (2): Linear(in_features=16, out_features=64, bias=True)
            )
          )
        )
        (toep2): Tno(
          (rpe): Rpe(
            (pos_proj): Linear(in_features=1, out_features=16, bias=True)
            (layers): ModuleList(
              (0): Sequential(
                (0): ReLU(inplace=True)
                (1): Linear(in_features=16, out_features=16, bias=True)
              )
              (1): Sequential(
                (0): ReLU(inplace=True)
                (1): Linear(in_features=16, out_features=16, bias=True)
              )
            )
            (out): Sequential(
              (0): LayerNorm((16,), eps=1e-05, elementwise_affine=True)
              (1): ReLU(inplace=True)
              (2): Linear(in_features=16, out_features=64, bias=True)
            )
          )
        )
      )
      (residual): Residual()
      (norm): Normalization(
        (norm): BatchNorm1d(32, eps=1e-05, momentum=0.1, affine=True, track_running_stats=True)
      )
      (drop): Dropout(p=0.1, inplace=False)
    )
    (3): SequenceResidualBlock(
      (layer): GLU(
        (l1): Linear(in_features=32, out_features=96, bias=True)
        (l2): Linear(in_features=32, out_features=96, bias=True)
        (l3): Linear(in_features=96, out_features=32, bias=True)
        (dropout): Dropout(p=0.1, inplace=False)
      )
      (residual): Residual()
      (norm): Normalization(
        (norm): BatchNorm1d(32, eps=1e-05, momentum=0.1, affine=True, track_running_stats=True)
      )
      (drop): Dropout(p=0.1, inplace=False)
    )
  )
  (norm): Normalization(
    (norm): BatchNorm1d(32, eps=1e-05, momentum=0.1, affine=True, track_running_stats=True)
  )
)
[2022-12-21 17:41:32,887][__main__][INFO] - Optimizer group 0 | 82 tensors

  | Name    | Type            | Params
--------------------------------------------
0 | model   | SequenceModel   | 38.8 K
1 | encoder | Sequential      | 64    
2 | decoder | SequenceDecoder | 330   
--------------------------------------------
39.0 K    Trainable params
…
