…
act_fun silu
causal False
none
self.num_heads 1
self.max_l 1024
self.use_exp False
self.use_neg_exp False
self.use_decay True
self.use_multi_decay False
self.dpb_embedding 16
self.dpb_act relu
self.dpb_use_pad True
self.normalize False
self.par_type 1
self.dpb_type 1
self.residual False
self.l 1
self.transform_type 1
self.gamma 0.7
bias True
tno_type 4
dpb_layers 0
use_norm False
norm_type layernorm
self.token_shift_type -1
swish
None
act_fun swish
dropout 0.1
final None
SequenceModel(
  (drop): Identity()
  (layers): ModuleList(
    (0): SequenceResidualBlock(
      (layer): TNO(
        (v_proj): Linear(in_features=32, out_features=64, bias=True)
        (u_proj): Linear(in_features=32, out_features=64, bias=True)
        (o): Linear(in_features=64, out_features=32, bias=True)
        (toep): DynamicToepliztMultiheadV4(
          (dpb): DynamicPosBiasV4(
            (pos_proj): Linear(in_features=1, out_features=16, bias=True)
            (pos1): Sequential(
              (0): ReLU(inplace=True)
              (1): Linear(in_features=16, out_features=16, bias=True)
            )
            (pos2): Sequential(
              (0): ReLU(inplace=True)
              (1): Linear(in_features=16, out_features=16, bias=True)
            )
            (pos3): Sequential(
              (0): LayerNorm((16,), eps=1e-05, elementwise_affine=True)
              (1): ReLU(inplace=True)
              (2): Linear(in_features=16, out_features=64, bias=True)
            )
          )
        )
      )
      (residual): Residual()
      (norm): Normalization(
        (norm): BatchNorm1d(32, eps=1e-05, momentum=0.1, affine=True, track_running_stats=True)
      )
      (drop): Dropout(p=0.1, inplace=False)
    )
    (1): SequenceResidualBlock(
      (layer): GLU(
        (l1): Linear(in_features=32, out_features=96, bias=True)
        (l2): Linear(in_features=32, out_features=96, bias=True)
        (l3): Linear(in_features=96, out_features=32, bias=True)
        (dropout): Dropout(p=0.1, inplace=False)
      )
      (residual): Residual()
      (norm): Normalization(
        (norm): BatchNorm1d(32, eps=1e-05, momentum=0.1, affine=True, track_running_stats=True)
      )
      (drop): Dropout(p=0.1, inplace=False)
    )
    (2): SequenceResidualBlock(
      (layer): TNO(
        (v_proj): Linear(in_features=32, out_features=64, bias=True)
        (u_proj): Linear(in_features=32, out_features=64, bias=True)
        (o): Linear(in_features=64, out_features=32, bias=True)
        (toep): DynamicToepliztMultiheadV4(
          (dpb): DynamicPosBiasV4(
            (pos_proj): Linear(in_features=1, out_features=16, bias=True)
            (pos1): Sequential(
              (0): ReLU(inplace=True)
              (1): Linear(in_features=16, out_features=16, bias=True)
            )
            (pos2): Sequential(
              (0): ReLU(inplace=True)
              (1): Linear(in_features=16, out_features=16, bias=True)
            )
            (pos3): Sequential(
              (0): LayerNorm((16,), eps=1e-05, elementwise_affine=True)
              (1): ReLU(inplace=True)
              (2): Linear(in_features=16, out_features=64, bias=True)
            )
          )
        )
      )
      (residual): Residual()
      (norm): Normalization(
        (norm): BatchNorm1d(32, eps=1e-05, momentum=0.1, affine=True, track_running_stats=True)
      )
      (drop): Dropout(p=0.1, inplace=False)
    )
    (3): SequenceResidualBlock(
      (layer): GLU(
        (l1): Linear(in_features=32, out_features=96, bias=True)
        (l2): Linear(in_features=32, out_features=96, bias=True)
        (l3): Linear(in_features=96, out_features=32, bias=True)
        (dropout): Dropout(p=0.1, inplace=False)
      )
      (residual): Residual()
      (norm): Normalization(
        (norm): BatchNorm1d(32, eps=1e-05, momentum=0.1, affine=True, track_running_stats=True)
      )
      (drop): Dropout(p=0.1, inplace=False)
    )
  )
  (norm): Normalization(
    (norm): BatchNorm1d(32, eps=1e-05, momentum=0.1, affine=True, track_running_stats=True)
  )
)
[2022-12-21 17:05:48,635][__main__][INFO] - Optimizer group 0 | 60 tensors

  | Name    | Type            | Params
--------------------------------------------
0 | model   | SequenceModel   | 35.3 K
1 | encoder | Sequential      | 64    
2 | decoder | SequenceDecoder | 330   
--------------------------------------------
35.6 K    Trainable params
…
