…
=====================================
theta_type a
rope
Identity
=====================================
=========================
qk_act
elu
=========================
causal False
has_out False
attention_use_layer_norm True
num_heads 8
act_fun_type: elu
norm_type batch
init_type default
use_lrpe True
use_dropout False
kv_act identity
self.weight_type -1
self.use_final_dropout False
self.final_dropout 0.0
normal init
SequenceModel(
  (drop): Identity()
  (layers): ModuleList(
    (0): SequenceResidualBlock(
      (layer): NormLocalAttention(
        (dropout_module): Dropout(p=0.2, inplace=False)
        (k_proj): Linear(in_features=32, out_features=32, bias=True)
        (v_proj): Linear(in_features=32, out_features=32, bias=True)
        (q_proj): Linear(in_features=32, out_features=32, bias=True)
        (out_proj): Linear(in_features=32, out_features=32, bias=True)
        (normalize): Normalization(
          (norm): BatchNorm1d(32, eps=1e-05, momentum=0.1, affine=True, track_running_stats=True)
        )
        (lrpe): Lrpe()
      )
      (residual): Residual()
      (norm): Normalization(
        (norm): BatchNorm1d(32, eps=1e-05, momentum=0.1, affine=True, track_running_stats=True)
      )
      (drop): Dropout(p=0.2, inplace=False)
    )
    (1): SequenceResidualBlock(
      (layer): FF(
        (ff): Sequential(
          (0): Sequential(
            (0): Linear(in_features=32, out_features=32, bias=True)
            (1): GELU()
          )
          (1): Linear(in_features=32, out_features=32, bias=True)
          (2): Dropout(p=0.2, inplace=False)
        )
      )
      (residual): Residual()
      (norm): Normalization(
        (norm): BatchNorm1d(32, eps=1e-05, momentum=0.1, affine=True, track_running_stats=True)
      )
      (drop): Dropout(p=0.2, inplace=False)
    )
    (2): SequenceResidualBlock(
      (layer): NormLinearAttention(
        (k_proj): Linear(in_features=32, out_features=32, bias=True)
        (q_proj): Linear(in_features=32, out_features=32, bias=True)
        (v_proj): Linear(in_features=32, out_features=32, bias=True)
        (layer_norm): Normalization(
          (norm): BatchNorm1d(32, eps=1e-05, momentum=0.1, affine=True, track_running_stats=True)
        )
        (lrpe): Lrpe()
        (out_proj): Linear(in_features=32, out_features=32, bias=True)
      )
      (residual): Residual()
      (norm): Normalization(
        (norm): BatchNorm1d(32, eps=1e-05, momentum=0.1, affine=True, track_running_stats=True)
      )
      (drop): Dropout(p=0.2, inplace=False)
    )
    (3): SequenceResidualBlock(
      (layer): FF(
        (ff): Sequential(
          (0): Sequential(
            (0): Linear(in_features=32, out_features=32, bias=True)
            (1): GELU()
          )
          (1): Linear(in_features=32, out_features=32, bias=True)
          (2): Dropout(p=0.2, inplace=False)
        )
      )
      (residual): Residual()
      (norm): Normalization(
        (norm): BatchNorm1d(32, eps=1e-05, momentum=0.1, affine=True, track_running_stats=True)
      )
      (drop): Dropout(p=0.2, inplace=False)
    )
  )
  (norm): Normalization(
    (norm): BatchNorm1d(32, eps=1e-05, momentum=0.1, affine=True, track_running_stats=True)
  )
)
[2022-12-21 15:47:18,618][__main__][INFO] - Optimizer group 0 | 42 tensors
Validation sanity check: 0it [00:00, ?it/s]Validation sanity check:   0%|          | 0/4 [00:00<?, ?it/s]Validation sanity check:  25%|██▌       | 1/4 [00:00<00:01,  2.72it/s]Validation sanity check:  75%|███████▌  | 3/4 [00:00<00:00,  5.29it/s] 
…
